mnist-logistic-01.pth (torch, 32423 bytes, 2 tensors)

linear.weight f4 [10, 784]
00000000: 543c a2bb 8c45 f2bc 10bd 06bd b8a1 d33c
00000010: 9098 543b 2ae4 fe3c 9f9a 083d c4fd 663c
00000020: bc14 00bc 22c8 ee3c f8ff 5dbc c006 0b3c
00000030: 54dd 383c c024 99bc fcdc 943c d9d2 dfbb
00000040: 4661 51bc 202a 02bb 2c6c ffbc cafa 64bc
00000050: a0cc 73bb 384e eb3b 6a4e 08bd 1c40 bc3c
00000060: 5460 353c 46d5 0cbd 5e67 bdbc e537 8fbc
00000070: 06b6 37bc 7d28 00bd ba8d a83c a00b 16bc
00000080: 9e42 003d 0530 b1bc 1bb2 0ebb 1a14 fa3b
00000090: eb06 723b f765 12bd 0a7c 03bc a2a1 033d
000000a0: dbe1 8b3a 9266 efbc 5cc3 9fbc 0176 fabc
000000b0: e9ec 843c 8a6e b5bc af54 293b 743f e3bc
000000c0: 6495 083d 62f8 803c 3b51 8bbc 3042 87bc
000000d0: 4e20 75bc b89e d53b 4003 c9bb baeb adbc
000000e0: 007f c8ba 1169 f7bc 14fc acbc 1b1a a63b
000000f0: be2a af3c 4369 e43c e8ee 25bc f70e 3fba
00000100: a97d 80bc 7e9f ec3c b44c edbb 59bc a73b
00000110: 746c 4abc 7479 633c 4dfc 4d3c f745 0ebd
00000120: 3a99 20bd 09a0 753c 4c3b 07bd 588a 13bd
00000130: e995 9fbc c739 44bc efc2 afbc 8a51 853c
00000140: 9a57 c7bc 6e4f fcbc d0b3 6b3b c027 2f3a
00000150: fed3 9cbc 1602 cf3c db32 083d cbda c13a
00000160: 5cdd b83a 79fc 393c 7f9e 0dbd c3e4 273c
00000170: e3c5 0fbd 9822 ffbb 9a0a b6bc 73e4 a7bc
00000180: e2ed a33c bad9 66bc 6830 9bbc 6fd5 673c
00000190: f7d0 0cbd 2d97 4d3b f271 953c 63e2 a03c
000001a0: edf6 073c 0c28 11bd eddc 08bd 3d17 9ebc
000001b0: b8be ab3c 93a0 a8bc 751e a6bc 93c4 83bc
000001c0: a67f db3c fc0c bf3c e51d e63c b809 f2bc
000001d0: 4bf9 aa3c a5ca fbbc 5c63 cb3b bc9d fdbc
000001e0: 0a9f 6bbc 70b4 eebc cb8c 02bd d1ea 7b3c
000001f0: 4171 2bbd 525e 9abb 268e 043d 7d7b ba3c
00000200: adc0 3b3c 6885 ef3c d86b d9bc 0f3e c2bc
00000210: 72e0 bcbc 966f 023d 8a57 633c d8ba a5bc
00000220: 81fc 5abc 5bb1 e9bc 3476 25ba 3145 d6bb
00000230: f2f1 b13c 6696 32bc a7f7 3fba 4790 ce3c
00000240: 4691 0c3c 3e72 b2bc 61aa fc3b 9569 f9bc
00000250: c9e6 973a 6ba8 6e3c ef7d 40bc c85e afbc
00000260: d19d ebbc 033a 2d3d f024 f53c c503 363d
00000270: 6d8c 0b3d 9574 a23c 9754 2a3d c34e a9ba
00000280: 07ad f43c 70a7 c8bb 2237 dbbc 946c 9e3c
00000290: 5dc4 7dbc fb01 17bd c151 ee3c ffde aebb
000002a0: 12ad e03c 77a7 27bc e8e0 babc 8213 16ba
000002b0: d7b4 18bb e7c4 11bd 960d 00bd 9498 17bb
000002c0: dec3 8ebc f883 4abd 6668 963c 9362 023c
000002d0: b21e 5ebc fa22 10ba 5456 c23b 2803 9e3d
000002e0: bdf5 3b3d 08bc 503d 6592 0f3d 2668 d23c
000002f0: 76ed ac3b c6b2 f63b a898 ca3b 636d 03bd
00000300: 78be 23bd 3bb2 213c a669 99bc 00aa d7bb
00000310: ab5f f03c d3cf 55ba de5d d8bb 675f 623b
00000320: 5e08 a0bc 24d6 a1bc ecec 01bd d3a5 4cbd
00000330: ceae 45bd fa9e cdbc df53 0ebd 5c10 ccbc
00000340: 21e3 083d 811f 6fba 8642 0f3d 2bee 333d
00000350: f5aa 313d c0bb 4e3d b2ad c83d 2957 093d
00000360: d9e5 913d 8d67 0dbc c881 ab3c cf0b a0bc
00000370: de7a 573c 49ca af3b d758 5a3c 6875 f33c
00000380: 9be3 43bc f9e5 b9bc 59fe 0cbd db74 af3b
00000390: f9b1 85bb 2b95 6d3c d65f fbbc 599f 36bd
000003a0: d677 07bd 403a 13bd 3997 37bc 69b4 3eba
000003b0: 136f 193d 3ff6 fb3b c64c 4d3d f93e 2f3d
000003c0: 7491 bf39 ab89 e93c 5802 653d 3caf 843d
000003d0: 4172 933d 50c5 f03c 3e9b 0f3d 328a 8e3a
000003e0: 2286 13bd 9235 0cbd 4bbe 9ebb 43af a3bc
000003f0: ffd2 5fbb 8a77 87bc f0a7 093c 4f89 9fbb
-0.0049510393 -0.029574178 -0.032895148 0.02583395 0.0032439567 0.031114656 0.033350583 0.014098588
-0.007817443 0.029148165 -0.013549797 0.008485496 0.0112832375 -0.018694282 0.01817178 -0.006830555
-0.012779539 -0.0019861534 -0.03117951 -0.013975808 -0.0037200823 0.0071809553 -0.033277906 0.022979788
0.01107033 -0.03438308 -0.023120578 -0.017482707 -0.011212831 -0.031288613 0.020575393 -0.009158045
0.03131353 -0.021629343 -0.002177364 0.007631791 0.0036930393 -0.035741773 -0.008025179 0.032136567
0.0010672169 -0.029223714 -0.019502334 -0.030573847 0.016226249 -0.022147436 0.002583783 -0.027740218
0.033345595 0.015743438 -0.017006507 -0.016511053 -0.014961315 0.006519165 -0.0061344206 -0.021230567
-0.0015296638 -0.030201467 -0.021116294 0.00506903 0.021382686 0.027882224 -0.0101277605 -0.0007288302
-0.01568492 0.028884646 -0.0072418097 0.0051188883 -0.012354959 0.013883937 0.01257236 -0.034734692
-0.03920863 0.014991769 -0.033015534 -0.036020607 -0.019480662 -0.011976666 -0.021455256 0.016274232
-0.024333764 -0.030799594 0.003596533 0.00066816434 -0.019144055 0.02526955 0.033251625 0.0014789937
0.0014104056 0.011351698 -0.03457498 0.010247412 -0.03510083 -0.0077861063 -0.022221852 -0.020494675
0.020010892 -0.014089996 -0.01894398 0.014150008 -0.034378972 0.0031370625 0.01824281 0.0196392
0.008298618 -0.035438582 -0.033413816 -0.01929819 0.020964965 -0.02058438 -0.020278195 -0.016084945
0.026794266 0.023321621 0.028090427 -0.02954565 0.020870825 -0.030736277 0.006206913 -0.030959003
-0.01438118 -0.029138774 -0.031872552 0.015375809 -0.041856054 -0.004710951 0.032362126 0.022763962
0.011459512 0.029238418 -0.026540682 -0.023711232 -0.023056243 0.031844698 0.013875851 -0.020230696
-0.013365866 -0.028526952 -0.0006311864 -0.00653901 0.021721814 -0.010900116 -0.0007322975 0.025215281
0.008579558 -0.02178299 0.0077107404 -0.030445853 0.0011589165 0.014566521 -0.011748775 -0.0214075
-0.028761776 0.042291652 0.02992484 0.04443719 0.034069467 0.019830981 0.041584577 -0.001291715
0.029867662 -0.0061234757 -0.026759688 0.019338883 -0.015488711 -0.036867123 0.029091718 -0.005336642
0.027426276 -0.010232798 -0.022812322 -0.0005724953 -0.0023301148 -0.03558817 -0.031262957 -0.0023131715
-0.017427381 -0.04944226 0.018360328 0.007958072 -0.013557123 -0.0005498376 0.0059307013 0.07715446
0.04588865 0.05096057 0.035051722 0.025684427 0.005277331 0.0075286357 0.006182749 -0.03208674
-0.039976567 0.009869154 -0.018727135 -0.006581545 0.029342493 -0.00081562734 -0.0066029867 0.0034541728
-0.01953524 -0.01975543 -0.031720087 -0.04996283 -0.04826241 -0.02510022 -0.034747954 -0.024910145
0.033419732 -0.0009121821 0.03497555 0.043928307 0.043375928 0.05047202 0.09798755 0.033530388
0.07123918 -0.008630645 0.020935908 -0.01953688 0.013151852 0.0053646904 0.013326845 0.02971907
-0.011956121 -0.022692667 -0.034422252 0.0053545064 -0.004080054 0.014500896 -0.030685347 -0.04458556
-0.03307327 -0.035944223 -0.011205488 -0.0007274808 0.037459444 0.007689267 0.050122045 0.042784665
0.0003653873 0.028508028 0.05591044 0.06478736 0.071995266 0.029390961 0.03506016 0.0010874926
-0.03601659 -0.034230776 -0.004844462 -0.019981032 -0.0034152863 -0.016536493 0.008401856 -0.0048686634

linear.bias f4 [10]
00000000: 265e 7ebd 4b39 c13d 8660 ddbc 890b 3cbd
00000010: d5ce 3b3c 02ee a93b 826d 28bd 9842 f03c
00000020: 4b16 adbd 7737 653b
-0.062101506 0.09434756 -0.027023565 -0.04590944 0.011462887 0.0051858434 -0.04112006 0.02932863
-0.08451518 0.0034975687
